12-network-anomaly-detection/models/model.pt (torch, 13181 bytes, 5 tensors)

0.weight f4 [64, 7]
0	0x3e03167f	0.1280155
1	0xbdd8e7b9	-0.105910726
2	0xbe4ed18d	-0.20197125
3	0xbe27bb9a	-0.16380158
4	0xbee4cace	-0.44685978
5	0xba62783e	-0.00086391333
6	0xbe0776bc	-0.13228887
7	0xbe57780e	-0.21041891
8	0x3e8f317f	0.2796745
9	0xbe384bec	-0.17997712
10	0x3e8b6e13	0.27232417
11	0x3e2a2c04	0.16618353
12	0xbb766971	-0.003759947
13	0xbbe60acd	-0.0070203305
14	0x3ebc1fe1	0.36743072
15	0x3eeaa43d	0.4582843
16	0xbe425a9e	-0.1897988
17	0xbe590300	-0.2119255
18	0xbdd71155	-0.10501353
19	0xbdadf7c7	-0.084945254
20	0xbe2efbf8	-0.17088306
21	0xbd16473e	-0.036689036
22	0x3e5fd7cb	0.21859662
23	0xbeacc186	-0.33741397
24	0xbe5d19a6	-0.21591815
25	0xbeace8e1	-0.33771423
26	0x3e10a5d4	0.14125758
27	0x3ce3dd13	0.027815377
28	0x3ea4bf1f	0.32177064
29	0x3dbdca00	0.09267044
30	0xbd6cd71a	-0.057822324
31	0x3cec43ba	0.028840888
32	0xbeedb59d	-0.46427622
33	0xbaab0218	-0.0013046889
34	0x3c78257b	0.015145655
35	0x3c2bcd97	0.010486028
36	0x3d340f35	0.043959815
37	0xbe6499c0	-0.22324276
38	0xbc896c65	-0.01677532
39	0xbe95b48e	-0.29239315
40	0x3e0e5540	0.13899708
41	0xbcdd0f2a	-0.02698477
42	0xbe5fb6c5	-0.21847065
43	0xbe56f40f	-0.20991538
44	0x3c7b7bda	0.015349353
45	0xbd907dd7	-0.07055252
46	0xbb93057d	-0.0044867382
47	0x3eefa25e	0.46803564
48	0xbd20d2bf	-0.039263483
49	0xbe3b301d	-0.18280073
50	0xbe56026b	-0.2089936
51	0xbcc22bad	-0.023702467
52	0xbe11fd3f	-0.14256762
53	0xbdbd233b	-0.09235235
54	0x3eaa3dd8	0.33250308
55	0x3c5510c9	0.01300449
56	0x3ddd8cd2	0.10817875
57	0x3e5daddd	0.21648355
58	0xbe80014b	-0.25000986
59	0xbc3b7acd	-0.011442852
60	0x3e9919ea	0.29902583
61	0xbeaa53c2	-0.33267027
62	0x3d4df9e2	0.050287135
63	0xbd74dd37	-0.05978128
64	0x3d073bd2	0.033016033
65	0x3dcc75b3	0.09983387
66	0xbd459ed4	-0.048247173
67	0xbe841ddd	-0.25804034
68	0x3e45a49d	0.19301076
69	0x3bbd1c7c	0.005771218
70	0x3e839e44	0.25706685
71	0x3e93ccfb	0.28867325
72	0x3dba885e	0.09108041
73	0x3cb46403	0.022020346
74	0xbeac08ff	-0.33600613
75	0xbcdbe019	-0.026840257
76	0xbdb20912	-0.08693136
77	0x3d6e0944	0.058114305
78	0xbd1db16d	-0.038499285
79	0x3ca45a4a	0.020062584
80	0x3e800fa8	0.25011945
81	0xbe56affe	-0.20965573
82	0xbd26c641	-0.040716413
83	0xbccce493	-0.025011336
84	0x3ec100bc	0.37695873
85	0x3d41252b	0.047154587
86	0xbce64fd7	-0.028114242
87	0x3c07e75a	0.008294905
88	0x3e8ba3ec	0.272735
89	0x3e9bf6f1	0.3046184
90	0xbcf87327	-0.030328346
91	0x3daf4bc6	0.085593745
92	0x3beb807f	0.007186949
93	0x3d109ff3	0.03530879
94	0x3bff7db9	0.0077969697
95	0xbe3b7a8f	-0.18308471
96	0x3da1d93e	0.07902764
97	0xbc2f1ffe	-0.01068878
98	0x3eba5d28	0.36399198
99	0x3d8d6bd8	0.06905335
100	0xbeb73196	-0.3578002
101	0x3e010959	0.12601222
102	0x3e3a64aa	0.18202463
103	0xbe7539a7	-0.23947774
104	0x3b963a96	0.0045846207
105	0x3e641ecd	0.22277375
106	0x3e58b46c	0.21162575
107	0xbde6c29e	-0.11267589
108	0x3c299156	0.010349592
109	0xbe8f6fbf	-0.28014943
110	0xbee04c02	-0.4380799
111	0x3cc4187a	0.023937453
112	0x3eb6912b	0.3565763
113	0x3eabe95b	0.33576474
114	0x3c79d8dc	0.015249457
115	0xbd650d6e	-0.05592101
116	0x3ea3c33f	0.31984898
117	0x3e985072	0.29748875
118	0xbd284ce1	-0.041088942
119	0xbddc641b	-0.10761281
120	0xbe87cccd	-0.26523438
121	0xbede7518	-0.4344871
122	0xbdde4e2e	-0.10854755
123	0xbe829ab4	-0.25508654
124	0x3e05229b	0.13001482
125	0x3d4d0849	0.05005673
126	0x3c241342	0.010014357
127	0xbe886604	-0.26640332
128	0x3cb6f6f5	0.022334555
129	0xbd4fc9d1	-0.050729576
130	0x3e36c6b5	0.17849238
131	0x3e07f023	0.13275199
132	0xbc81ef8c	-0.015861295
133	0x3e371400	0.17878723
134	0x3e504bd7	0.2034143
135	0xbdc17335	-0.09445802
136	0xbeb9d342	-0.3629399
137	0x3e35cb36	0.177533
138	0x3ec31cd2	0.38107926
139	0xbd2408a3	-0.0400473
140	0x3e81bf5a	0.25341302
141	0x3dd97898	0.106187046
142	0xbd4f9b04	-0.050684944
143	0xbe48564f	-0.19564174
144	0x3ec03193	0.37537822
145	0xbe7b4227	-0.24536954
146	0x3d3a4de6	0.045484446
147	0x3ec9bcf9	0.39401987
148	0x3d46965f	0.04848325
149	0xbe7ef61c	-0.24898571
150	0x3b8e308a	0.0043392824
151	0x3e0a366d	0.13497324
152	0x3d78d77c	0.060752377
153	0xbe2f3e97	-0.1711372
154	0xbe218c1c	-0.15776104
155	0xbe5f8200	-0.21826935
156	0x3e3d8afe	0.18510053
157	0xbd678cd8	-0.056530803
158	0xbe62ce4d	-0.2214901
159	0x3d78976e	0.06069129
160	0xbbe04b2d	-0.006844899
161	0x3e888f2f	0.2667174
162	0xbd9c06b2	-0.076184645
163	0xbecd03f2	-0.40042073
164	0xbadeff8e	-0.0017013417
165	0x3e08db2c	0.13364857
166	0x3b385eff	0.0028132794
167	0x3d2e9ea5	0.042631764
168	0x3ebf7405	0.37393203
169	0x3e831cca	0.25607902
170	0xbe3b06e5	-0.18264349
171	0x3d5292ba	0.05140946
172	0x3c135ae7	0.008993841
173	0xbd4e1a60	-0.050318122
174	0xbbdd8bbf	-0.006761044
175	0x3ee65c55	0.4499232
176	0x3e2542bb	0.16138737
177	0xbdd67139	-0.10470814
178	0x3d8cb6c9	0.06870801
179	0xbedf044e	-0.43557972
180	0xbc9570ae	-0.018242206
181	0xbd8d6303	-0.069036506
182	0x3ecf5926	0.40497702
183	0x3ebdae7f	0.37047192
184	0xbe12e402	-0.1434479
185	0x3d4b4403	0.049625408
186	0xbe866d27	-0.26255152
187	0xbea5e7a8	-0.32403302
188	0xbe15a554	-0.14613849
189	0x3e4e1bbe	0.2012777
190	0x3ea810f7	0.32825443
191	0xbd7682c5	-0.060183305
192	0xbdbcaee9	-0.09213049
193	0xbefd40cf	-0.49463508
194	0x3e4c1b4d	0.1993229
195	0xbd637e37	-0.05554029
196	0xbe1eaaa3	-0.1549478
197	0x3e7ffd9e	0.24999091
198	0x3ded75d6	0.11594741
199	0x3e8e2cdb	0.27768597
200	0x3e3a7799	0.18209685
201	0x3de9f48c	0.11423597
202	0x3d90ffb3	0.07080021
203	0xbe516fa5	-0.20452745
204	0xbd846ade	-0.06465696
205	0x3ea05492	0.31314522
206	0xbd29724c	-0.041368768
207	0xbe9c2a4a	-0.30501014
208	0x3e5f1531	0.21785428
209	0xbd830436	-0.063972875
210	0x3ee914f4	0.45523798
211	0x3ea39591	0.31950048
212	0x3da95261	0.08267666
213	0x3d9e32f1	0.0772456
214	0x3e9f325d	0.31093112
215	0xbe9d7762	-0.30755144
216	0xbd1abdb4	-0.03777857
217	0x3e5b7f71	0.21435334
218	0xbd9c06de	-0.07618497
219	0xbe9c7b95	-0.30563036
220	0xbcc40cf6	-0.023931962
221	0xbe9325bc	-0.28739727
222	0x3ef0a934	0.47004092
223	0x3c6d9321	0.01450041
224	0x3df1e6fb	0.11811634
225	0xbe159931	-0.14609219
226	0x3c717864	0.014738176
227	0xbce44688	-0.027865663
228	0x3e4263fb	0.18983452
229	0x3e2ccce4	0.16875035
230	0xbd61b283	-0.055101883
231	0x3e6c91e2	0.23102525
232	0x3e092e81	0.13396646
233	0xbd822c7f	-0.06356143
234	0x3dffa5b0	0.12482774
235	0x3ebb8515	0.3662497
236	0x3ddf980f	0.10917675
237	0xbc0daf73	-0.008647787
238	0xbd2abdb3	-0.041684818
239	0xbdeac017	-0.114624195
240	0xbd886f5f	-0.06661867
241	0x3d6c5186	0.057694934
242	0xbe8a32ed	-0.26991978
243	0x3e1cc0e9	0.15307964
244	0x3d1e3c95	0.038631994
245	0xbdb2753d	-0.08713768
246	0x3dc57bee	0.09642778
247	0xbe0b0724	-0.13576943
248	0x3e8ceb66	0.27523345
249	0x3cbdf7c8	0.02318944
250	0x3cf0de16	0.029402774
251	0xbc1b473b	-0.009477432
252	0x3e627342	0.2211428
253	0x3ec4460f	0.383347
254	0xbe7558f9	-0.23959722
255	0xbc37070c	-0.011171114

0.bias f4 [64]
0	0x3eeffd45	0.46872917
1	0xbe640ad4	-0.22269756
2	0x3e4cef97	0.20013271
3	0x3ee048a1	0.4380541
4	0x3e3d0a8e	0.18461058
5	0x3d9070f3	0.07052793
6	0x3d81cc3e	0.06337784
7	0x3efc1da1	0.49241355
8	0x3df37aec	0.1188868
9	0x3ddfa284	0.10919669
10	0x3eb511f7	0.3536527
11	0x3e11635f	0.14198063
12	0x3e1ab6be	0.15108773
13	0xbdf0fd00	-0.11767006
14	0xbe4d5522	-0.20052007
15	0x3e0d5293	0.13801031
16	0x3dee12a9	0.11624653
17	0x3e6e6bde	0.23283336
18	0x3e375699	0.17904128
19	0x3ed20a70	0.41023588
20	0x3e02429d	0.12720723
21	0x3e728bf0	0.23686194
22	0x3ea10a60	0.31453228
23	0x3eab3155	0.33436075
24	0x3ebb0d82	0.36533743
25	0x3cf85617	0.030314488
26	0x3eae9bf1	0.3410335
27	0x3d948618	0.07252139
28	0xbdab9744	-0.08378461
29	0x3ce84201	0.028351786
30	0x3dc75286	0.09732537
31	0x3db69ea8	0.0891698
32	0x3ef6bf28	0.48192716
33	0x3e327001	0.17425539
34	0x3e165509	0.14680876
35	0xbdf19644	-0.11796239
36	0x3f0c60bf	0.5483512
37	0x3e5c24e6	0.2149845
38	0xbc9c203b	-0.019058337
39	0x3e62d569	0.22151722
40	0x3ee3f483	0.44522485
41	0x3dbbbc7f	0.09166812
42	0xbd06c7da	-0.032905437
43	0xbdc44cbc	-0.095849484
44	0x3e2b1552	0.16707352
45	0x3e2446e0	0.16042662
46	0xbe2860d8	-0.16443193
47	0x3e77300a	0.24139419
48	0x3ca0fc00	0.019651413
49	0xbd029665	-0.03188171
50	0x3eaaa2e3	0.33327398
51	0x3e91d6af	0.28484103
52	0x3e001248	0.12506974
53	0x3ed1c100	0.4096756
54	0x3e8f5971	0.27997926
55	0xbe0a64ef	-0.13515066
56	0x3ddf40c0	0.10901022
57	0x3ec11b3d	0.37716094
58	0x3ec5036e	0.3847918
59	0xbdb4ba41	-0.088245876
60	0x3ebd1a53	0.36934146
61	0x3e38fb33	0.18064575
62	0x3cc4d8f9	0.024029242
63	0x3dd359a4	0.10319832

3.weight f4 [32, 64]
0	0x3cb1f8c8	0.021725073
1	0xbd6cac51	-0.05778152
2	0x3dfbde33	0.122982405
3	0x3db6e4fb	0.08930393
4	0x3d3d4925	0.046212334
5	0x39b4d433	0.00034490376
6	0x3de2665c	0.1105468
7	0x3d5db95f	0.05413186
8	0x3dab35e7	0.083598904
9	0xbb9ad000	-0.0047245026
10	0x3e4e216c	0.20129937
11	0xbc40dd83	-0.0117715625
12	0x3e113cb6	0.14183316
13	0xbc21874e	-0.009858919
14	0x3cf9a6f2	0.030475114
15	0x3e134725	0.14382608
16	0x3e056934	0.13028413
17	0x3e4473e7	0.19184838
18	0x3bc37990	0.005965419
19	0x3e30dea4	0.1727243
20	0x3e09b225	0.13446863
21	0x3deceb8c	0.115683645
22	0x3c93c204	0.01803685
23	0x3da159e9	0.07878477
24	0x3d8a2fd3	0.06747403
25	0x3d725c38	0.059169978
26	0x3e23f6ca	0.16012111
27	0x3cb4ca1f	0.022069035
28	0xbab1bc83	-0.0013560209
29	0x3d99f4ba	0.07517381
30	0x3d667e61	0.056272868
31	0x3d5babb8	0.05363056
32	0x3cd17bc6	0.025571715
33	0x3e16a1bd	0.14710136
34	0x3d1280af	0.035767253
35	0xbceb4fe6	-0.028724622
36	0x3daa5db6	0.08318655
37	0x3e2c9237	0.16852652
38	0xbd3abeae	-0.045592003
39	0x3e23f6e6	0.16012153
40	0x3d58ecfc	0.05296038
41	0x3d302696	0.04300555
42	0x3d4bf2d7	0.049792137
43	0xbcad571e	-0.021159705
44	0x3b6720ac	0.0035267277
45	0x3e3671f8	0.17816913
46	0xbd1fa0ec	-0.038971826
47	0x3d894b54	0.06703821
48	0x3e38aa25	0.18033655
49	0x3d9b8fc6	0.07595782
50	0x3db9242f	0.090401046
51	0x3d3411de	0.043962352
52	0x3bb991d1	0.0056631346
53	0x3cf97594	0.030451573
54	0x3e4923bb	0.19642536
55	0xbd9d6962	-0.07686116
56	0x3cf6bfa5	0.03012068
57	0x3e300550	0.17189527
58	0xbaf4ce7c	-0.001867726
59	0xbcceea67	-0.025258256
60	0x3d61f36e	0.055163793
61	0x3d5d3e44	0.05401446
62	0x3e2ca56a	0.16859975
63	0x3e328db5	0.1743687
64	0x3e307710	0.17232919
65	0xbda1baa4	-0.07896927
66	0x3e607255	0.21918614
67	0x3e4a1e8f	0.1973822
68	0x3e07e16f	0.1326959
69	0x3e015f81	0.12634088
70	0x3a1839c4	0.00058069476
71	0x3e08c5dc	0.13356727
72	0x3ce10595	0.027468482
73	0x3e0660b0	0.13122821
74	0x3d0f2877	0.0349507
75	0x3db0b4ea	0.086282566
76	0x3d9b4c0f	0.075828664
77	0xba85ccd6	-0.0010208141
78	0x3d1e2a89	0.038614783
79	0x3d83095d	0.0639827
80	0x3ddd5aeb	0.10808357
81	0x3e29c637	0.16579519
82	0x3cac086d	0.021000111
83	0x3e4f9dbf	0.20275019
84	0x3e1b7de6	0.15184745
85	0x3e2144a2	0.15748838
86	0x3e13f9c4	0.14450747
87	0x3da7a808	0.08186346
88	0x3d994d78	0.07485479
89	0x3e286c92	0.16447666
90	0x3d3d6397	0.046237554
91	0x3dd2ab92	0.10286631
92	0xbd244769	-0.040107165
93	0x3e0498e3	0.12948947
94	0x3de4594e	0.11149846
95	0x3d9eeaea	0.0775965
96	0x3db9b49c	0.09067652
97	0xbc995a99	-0.018719958
98	0xbcec979c	-0.028880887
99	0xbcd36472	-0.025804732
100	0x3e4bdc8f	0.19908355
101	0x3d94a23e	0.07257508
102	0xbc2c7d6a	-0.010527948
103	0xbba5d2a2	-0.00506051
104	0x3e500ae1	0.2031665
105	0x3d24b364	0.040210143
106	0xbab62c23	-0.0013898652
107	0xbd0c7db0	-0.034299552
108	0x3e277424	0.16352898
109	0x3d647a17	0.055780496
110	0xbdfee049	-0.12445123
111	0x3e3992a5	0.18122347
112	0x3dab69da	0.08369799
113	0x3e20a946	0.15689573
114	0x3cf4267f	0.029803513
115	0x3e328751	0.17434432
116	0x3e393295	0.18085702
117	0x3db112ab	0.08646139
118	0x3e163e6b	0.14672248
119	0x3d31d5cd	0.043416787
120	0x3e4d3c79	0.200426
121	0x3dc3a296	0.09552495
122	0x3dd74fe9	0.105132885
123	0xbc2cad82	-0.010539414
124	0x3de20958	0.110369384
125	0x3d3cb25c	0.046068534
126	0x3d4567aa	0.048194565
127	0x3d1ad72d	0.037802864
128	0x3de2d049	0.110748835
129	0xbdcf2be4	-0.10115793
130	0x3d112ba3	0.035442006
131	0x3d93e1b9	0.072207876
132	0x3e2055cd	0.1565773
133	0xbbdcdcc2	-0.0067401836
134	0xbb969823	-0.004595773
135	0x3de679ab	0.11253675
136	0x3dd01aec	0.10161385
137	0xbd011098	-0.031509966
138	0x3e08349d	0.1330132
139	0xbc9ab75d	-0.018886263
140	0x3da2be7c	0.07946488
141	0x3d76c99b	0.06025086
142	0x3cb26664	0.02177734
143	0x3ddec8bb	0.1087813
144	0x3c9ee222	0.019394938
145	0x3d9e289b	0.07722589
146	0x3e34f5b1	0.17671849
147	0xbca2883c	-0.019840352
148	0x3dbfaec9	0.093595095
149	0x3dd07094	0.101777226
150	0x3d303866	0.043022536
151	0x3dc4ef68	0.096159756
152	0x3bda13f4	0.0066552106
153	0x3e049d17	0.1295055
154	0x3c3da334	0.011574555
155	0x3e47ba7f	0.19504736
156	0xbc0c48fe	-0.008562325
157	0x3e055534	0.13020784
158	0x3d5cfa9f	0.05394995
159	0x3e370ea9	0.17876686
160	0xbbbf1d01	-0.005832315
161	0x3d25f747	0.040519025
162	0x3dcb9451	0.099403985
163	0xbd4e2a9d	-0.050333608
164	0x3e0a74a6	0.1352106
165	0x3d23925c	0.0399345
166	0xbd00751b	-0.03136168
167	0x3e290d44	0.16508967
168	0x3e0a2fd2	0.13494805
169	0x3e0b98de	0.13632533
170	0x3e002bd3	0.12516718
171	0xbca11b59	-0.01966636
172	0x3dd1136c	0.102087826
173	0x3e176603	0.14785008
174	0xbe06fbbb	-0.13181965
175	0x3d23cf30	0.03999251
176	0x3e2b556d	0.16731806
177	0x3de8c83d	0.113663174
178	0x3d1a3634	0.03764935
179	0x3df735dc	0.1207082
180	0x3dd99474	0.10624018
181	0x3df0dec4	0.11761239
182	0x3e3acb9a	0.1824173
183	0x3d3007de	0.042976253
184	0x3e09fa36	0.13474354
185	0x3e083e02	0.13304904
186	0x3e410f93	0.18853597
187	0xbcb64cde	-0.02225345
188	0x3dbc7f86	0.09204011
189	0x3c30a540	0.010781586
190	0x3dfc058b	0.12305745
191	0xbc232c06	-0.0099592265
192	0x3e4bc565	0.19899519
193	0xbd2b7fe6	-0.04187002
194	0x3d8a62da	0.06757136
195	0x3d39f8c0	0.045403242
196	0x3cfffb45	0.031247744
197	0x3d967b28	0.07347709
198	0x3da54edc	0.08071682
199	0x3d57c7b3	0.052680682
200	0x3e382320	0.17982149
201	0x3da024b1	0.07819498
202	0x3dd92e53	0.10604539
203	0x3d4bdf5e	0.049773566
204	0x3dc71128	0.09720069
205	0xbb6bf46e	-0.0036003846
206	0xbd126cb0	-0.035748184
207	0x3ddc4627	0.10755568
208	0x3db2557d	0.08707712
209	0x3d054fa2	0.032546647
210	0xbccc9332	-0.024972532
211	0x3e43aff8	0.19110096
212	0x3dabd8b1	0.0839094
213	0x3d03f697	0.03221759
214	0x3d91a36c	0.071112484
215	0x3e43c2d5	0.19117291
216	0x3d5325d9	0.051549766
217	0x3dad9a4c	0.084766954
218	0x3dc6c7fa	0.09706111
219	0x3c1313cf	0.008976891
220	0xbdae6b75	-0.085165896
221	0x3d9ba00e	0.075988874
222	0x3e1cff07	0.1533166
223	0x3e2d95a7	0.16951619
224	0x3d698f5f	0.057021495
225	0x3de81f5b	0.113341056
226	0x3dc0ba24	0.094105035
227	0xbd5bf43e	-0.053699724
228	0x3c21e98f	0.009882345
229	0x3d83c282	0.06433584
230	0xbdcd02c3	-0.100102924
231	0x3dab7542	0.083719745
232	0x3e3658da	0.17807332
233	0x3d0af6f6	0.033926927
234	0x3e028098	0.12744367
235	0x3c41c392	0.011826413
236	0x3de5c758	0.112196624
237	0x3d9409e0	0.07228446
238	0xbe44d089	-0.19220175
239	0x3e0f0c51	0.13969542
240	0x3e00ffa4	0.12597519
241	0xbb8fbc00	-0.004386425
242	0x3e4789d8	0.19486177
243	0x3d69b171	0.057053987
244	0x3e22e30a	0.15906921
245	0x3e386182	0.18005946
246	0x3d215125	0.039384026
247	0x3dc05028	0.093902886
248	0x3df7e444	0.12104085
249	0x3c7cbe0c	0.01542617
250	0x3d47c87a	0.048775174
251	0xbce34668	-0.027743533
252	0x3d9928a2	0.07478453
253	0x3e0f2095	0.13977273
254	0xbc4973a0	-0.012295634
255	0x3dc1b93e	0.0945916

3.bias f4 [32]
0	0x3e008e18	0.12554204
1	0xbc3d7844	-0.011564318
2	0x3e25a723	0.16177039
3	0x3de3d28d	0.11124144
4	0x3ce14a0e	0.027501132
5	0x3df502be	0.11963414
6	0x3dc5b6c1	0.09653998
7	0x3bf77006	0.007551196
8	0xbcecec17	-0.02892117
9	0x3c232b50	0.009959057
10	0xbc06344d	-0.00819118
11	0x3e39966e	0.1812379
12	0xbca5922d	-0.020211304
13	0x3c5787c7	0.01315493
14	0xbd927a67	-0.07152253
15	0x3c06d4c0	0.0082294345
16	0x3e314cfc	0.17314523
17	0x3d5c8ee1	0.053847197
18	0x3b0e6b27	0.0021731348
19	0x3db98c1c	0.09059927
20	0xbcb0e381	-0.021592857
21	0x3dca051f	0.09864258
22	0xbdd877f9	-0.10569758
23	0x3d76b1bc	0.060228094
24	0xbc9ad0df	-0.018898426
25	0xbdeb8e0c	-0.11501703
26	0x3dccd93f	0.10002374
27	0x3e189ee1	0.14904357
28	0x3e0cb02e	0.13739082
29	0x3db3dfa1	0.08782888
30	0xbd39c8c9	-0.0453575
31	0x3c0243d6	0.007950744

6.weight f4 [1, 32]
0	0xbe950360	-0.29104137
1	0xbe60b24b	-0.21943013
2	0xbe86d54a	-0.26334602
3	0xbe8f3a8e	-0.2797436
4	0x3e229c08	0.15879834
5	0xbe763a18	-0.24045599
6	0xbea9d754	-0.33172095
7	0x3bb46b0d	0.0055059255
8	0x3e885ba3	0.26632413
9	0xbe689c28	-0.22715819
10	0x3dadd1ec	0.08487305
11	0xbe9e7b61	-0.30953506
12	0x3e6a5c17	0.22886692
13	0xbe68367a	-0.22677031
14	0x3d1b054c	0.03784685
15	0x3e1ae280	0.15125465
16	0xbea2a534	-0.31766665
17	0xbe8c5a1b	-0.27412495
18	0xbe75897e	-0.2397823
19	0xbe909ddc	-0.28245437
20	0x3de1588c	0.11003217
21	0xbe854282	-0.26027304
22	0x3dad36fa	0.084577516
23	0xbe566e7f	-0.20940588
24	0x3e98d1c0	0.29847527
25	0x3e507f6c	0.20361108
26	0xbe8f54fe	-0.2799453
27	0xbe6cfb73	-0.23142795
28	0xbe48582b	-0.19564883
29	0xbe7cbc31	-0.24681164
30	0x3e1a0f65	0.15044935
31	0x3d0afd50	0.033932984
